models/servo_model6.pth (torch_old, 362310 bytes, 13 tensors)

features.0.weight f4 [24, 3, 3, 3]
0	0x3dcd9b86	0.10039429
1	0x35e1da19	1.6827281e-06
2	0xbe5bfae9	-0.21482433
3	0x3e2ce6f2	0.16884974
4	0xbb5603d3	-0.0032656088
5	0x3e15a46b	0.14613502
6	0xbe142664	-0.1446777
7	0x3df711af	0.1206392
8	0xbdc25f92	-0.09490885
9	0x3d6a8429	0.057254944
10	0x3df921d5	0.12164656
11	0x3db7705e	0.08956979
12	0x3bf8212a	0.007572313
13	0x3d4779b8	0.048700064
14	0xbcb60911	-0.02222112
15	0x3d94c031	0.0726322
16	0x3ce3b72a	0.0277973
17	0xbd34aaf8	-0.04410836
18	0xbd57f7c0	-0.052726507
19	0x3da1eb5e	0.07906221
20	0xbdeaafda	-0.11459322
21	0x3d3bebda	0.045879222
22	0xbe3f5eef	-0.18688558
23	0x3d6429c1	0.055703882
24	0xbe242905	-0.16031273
25	0xbc9de060	-0.01927203
26	0xbe21d748	-0.1580478
27	0xbe5ca1a6	-0.21546039
28	0x3ce8f624	0.028437681
29	0xbccd8bfc	-0.025091164
30	0xbda979fa	-0.08275218
31	0xbd5d7575	-0.054067094
32	0x3dfc68e2	0.12324692
33	0xbe28ea61	-0.16495658
34	0xbe1fd3ca	-0.15608135
35	0x3d913187	0.07089525
36	0x3e2222a5	0.15833528
37	0xbd9b15a7	-0.07572489
38	0xbd5e4cfb	-0.054272633
39	0x3e026b3b	0.12736218
40	0xbc25b538	-0.010114007
41	0x3e1e599c	0.15463871
42	0xbcfd77fd	-0.030941004
43	0x3d7acb60	0.06122911
44	0xbe2c42b9	-0.16822328
45	0x3c5d1c17	0.013495467
46	0x3d7272b5	0.059191424
47	0xbd878f05	-0.06619076
48	0x3dc89787	0.097945265
49	0xbda6f5da	-0.08152361
50	0xbd3b0342	-0.045657404
51	0x3d812d23	0.06307437
52	0x3bec11b8	0.0072042607
53	0x3e2c783c	0.16842741
54	0xbd196c59	-0.037456844
55	0x3aba5397	0.0014215586
56	0xbdc3713b	-0.095430814
57	0x3d7a3cc1	0.061093096
58	0x3e0d7508	0.13814175
59	0xbe3eda94	-0.18638068
60	0xbd713467	-0.058887865
61	0x3d77ee0b	0.06052975
62	0xbdf429cb	-0.11922034
63	0x3bb11c06	0.005404952
64	0xbe4d2016	-0.20031771
65	0x3e13336c	0.14375085
66	0xbb87de19	-0.004146349
67	0xbe143a78	-0.14475429
68	0x3e0884e3	0.13331942
69	0x3d0e463d	0.034734953
70	0xbd23fcbb	-0.040035944
71	0x3d6e7398	0.058215708
72	0x3dd282cf	0.10278856
73	0x3dcce5df	0.10004782
74	0x3dc34f6e	0.095366344
75	0xbd36fc6c	-0.044674322
76	0xbd92a728	-0.07160789
77	0x3df592ed	0.119909145
78	0xbca1c80a	-0.019748706
79	0xbda6a07d	-0.081360795
80	0x3e1b8ec2	0.15191177
81	0x3d756a71	0.059915964
82	0xbe3ae535	-0.18251498
83	0xbdcc38be	-0.0997176
84	0xbd2df35d	-0.042468417
85	0x3e35af24	0.17742592
86	0x3d9be4e4	0.07612017
87	0xbba26db1	-0.004956924
88	0x3dde0c8c	0.10842237
89	0xbdb3a218	-0.08771151
90	0x3d3b0129	0.045655403
91	0xbc5bf58a	-0.01342524
92	0xbd5b3303	-0.053515445
93	0xbddcabd2	-0.107749596
94	0x3e2f91ed	0.1714551
95	0xbd5bf0e8	-0.053696543
96	0xbe04bfc4	-0.12963778
97	0x3d31404f	0.04327422
98	0xbe20d248	-0.15705216
99	0x3de3088b	0.11085614
100	0x3da64334	0.08118287
101	0x3d89951a	0.06717892
102	0xbe1a6950	-0.15079236
103	0xbd6106ba	-0.054938056
104	0x3d6c72c6	0.057726644
105	0xbc52e34e	-0.0128715765
106	0x3de461c0	0.11151457
107	0x3df05c1e	0.1173632
108	0x3db7b494	0.089699894
109	0x3c69db4c	0.014273476
110	0xbe117a89	-0.142069
111	0x3dd4dad9	0.103933044
112	0x3e121c52	0.14268616
113	0x3e128f0f	0.14312385
114	0x3dcd677d	0.100295044
115	0x3d7dd6ff	0.061972614
116	0x3deb2402	0.11481477
117	0xbe0e7375	-0.13911231
118	0xbda66f61	-0.081267126
119	0x3cceb943	0.025234824
120	0xbe19102e	-0.14947578
121	0xbca1fe42	-0.01977456
122	0xbce71d3a	-0.028212178
123	0x3d58397c	0.052789196
124	0xbde92607	-0.11384206
125	0xbe5f8cb6	-0.2183102
126	0xbd9341ea	-0.071903065
127	0x3c96cf5a	0.01840942
128	0x3de50592	0.11182703
129	0xbd836bb0	-0.06417024
130	0x3e3d2742	0.18472007
131	0xbe3b739c	-0.1830582
132	0x3dec96fb	0.11552235
133	0xbe27b889	-0.16378988
134	0x3e034838	0.12820518
135	0x3d8a1815	0.067428745
136	0xbe06ac7b	-0.13151734
137	0xbc9a25c5	-0.018816838
138	0x3d553227	0.052049782
139	0xbe3f74a3	-0.18696837
140	0x3d34b52b	0.044118088
141	0xbdd2c665	-0.10291747
142	0xbe167c3e	-0.14695832
143	0xbd1f71f0	-0.03892702
144	0x3cdd4d5c	0.027014427
145	0x3a8fc39d	0.0010968331
146	0xbd451f1f	-0.048125383
147	0x3d1800af	0.037110027
148	0x3e4f4b65	0.20243604
149	0xbd5ed1b1	-0.054399196
150	0x3c9a1c15	0.018812219
151	0xbc527373	-0.012844908
152	0x3df402a5	0.11914567
153	0xbe2011e1	-0.1563182
154	0x3e182045	0.1485606
155	0x3da1e2db	0.07904597
156	0x3e04a324	0.12952858
157	0xbe2eec64	-0.17082363
158	0x3da9034e	0.082525834
159	0x3ccfc546	0.025362622
160	0xbe15866e	-0.14602062
161	0x3e2bd641	0.1678095
162	0x3d3cd4f5	0.04610153
163	0x3e4a33df	0.1974635
164	0xbc6ae4f2	-0.014336811
165	0x3e113c9c	0.14183277
166	0xbd9cbd8e	-0.07653342
167	0x3cb6a94f	0.02229753
168	0xbbb53f24	-0.0055312086
169	0xbd0d9747	-0.034568097
170	0xbca83dd6	-0.020537298
171	0xbde9a600	-0.11408615
172	0xbd7980d6	-0.060913883
173	0x3e2c9112	0.16852215
174	0x3e4a1152	0.1973317
175	0x3d96b15e	0.07358049
176	0xbdded62d	-0.108806945
177	0x3d8b88eb	0.068132244
178	0xbbfb9e9f	-0.007678821
179	0xbe0f8367	-0.1401497
180	0xbe16fcfe	-0.14744946
181	0x3bec6430	0.0072140917
182	0xbdf67c35	-0.12035409
183	0xbdbec238	-0.09314388
184	0x3d77bbf1	0.06048197
185	0xbe253325	-0.16132791
186	0x39e4edac	0.00043664628
187	0xbd8156b9	-0.06315369
188	0xbdc190ac	-0.09451422
189	0xbdaa23b1	-0.08307589
190	0xbb265e60	-0.0025385842
191	0xbd43988e	-0.04775291
192	0x3e10ac09	0.14128126
193	0xbe06157e	-0.13094136
194	0xbd65eb8b	-0.056132834
195	0xbdef40d6	-0.11682288
196	0xbdb69473	-0.08915033
197	0x3d7293d8	0.059223026
198	0xbe142103	-0.14465718
199	0x3e427287	0.18989001
200	0x3c4d9f53	0.012550193
201	0xbe255df2	-0.16149119
202	0x3e027662	0.12740472
203	0x3d3993c7	0.045306947
204	0xbe165831	-0.1468208
205	0x3d70a77e	0.058753483
206	0x3dcba8ac	0.09944281
207	0xbd0ce003	-0.03439332
208	0x3da6080a	0.08107002
209	0xbd8a9ecb	-0.067685686
210	0xbdaf4648	-0.08558327
211	0xbd5a9973	-0.053368997
212	0x3e36177b	0.17782395
213	0x3dc0f354	0.09421411
214	0x3d7c3c23	0.06158079
215	0x3e4ec6c1	0.20193006
216	0x3dd54a3f	0.10414552
217	0xbe111ea8	-0.1417185
218	0x3dd67a92	0.10472597
219	0x3b3b6bb4	0.0028598132
220	0x3dc1c3a8	0.094611466
221	0xbd09eff6	-0.03367611
222	0x3e0dae9f	0.13836144
223	0xbe007467	-0.12544404
224	0x3d9b10c8	0.0757156
225	0xbdfc3ec1	-0.12316657
226	0xbd9a58a0	-0.07536435
227	0x3d62b909	0.055352245
228	0x3e134c33	0.14384536
229	0xbe5abe30	-0.21361613
230	0x3d78c828	0.06073776
231	0xbe019515	-0.12654527
232	0x3e238adc	0.1597094
233	0xbc25dd12	-0.010123508
234	0x3c45a981	0.012064339
235	0xbd2bcb51	-0.041941945
236	0x3ce32de9	0.027731853
237	0x3de317d2	0.11088528
238	0x3d8d1c5d	0.068901755
239	0xbde88baa	-0.11354764
240	0x3de7a3c2	0.11310531
241	0xbe0b18a6	-0.13583621
242	0xbe062034	-0.13098222
243	0x3dc5a905	0.096513785
244	0x3e2c1211	0.16803767
245	0xbdef5941	-0.11686946
246	0x3bc441c7	0.0059892866
247	0x3c29b449	0.010357925
248	0x3e2912c4	0.16511065
249	0xbdfaf238	-0.12253231
250	0xbe28ccd7	-0.1648439
251	0x3e289333	0.16462402
252	0xbbf0476a	-0.007332732
253	0x3e03eb12	0.12882641
254	0xbda12d89	-0.07870013
255	0xbdf3453e	-0.11878441

features.0.bias f4 [24]
0	0xba0db0a1	-0.0005405043
1	0x3c49a93b	0.012308414
2	0xbc83778c	-0.016048215
3	0x3b1a8f04	0.002358378
4	0xbb1c7491	-0.002387319
5	0x3ba66af1	0.0050786664
6	0x3db1fd48	0.08690888
7	0xbd29cf55	-0.041457493
8	0x3ad761b6	0.0016432318
9	0xbc5f9ec9	-0.013648697
10	0x3e1a1e04	0.15050513
11	0xbb830ce6	-0.0039993403
12	0x39825cec	0.00024864764
13	0xbb90b8d9	-0.004416567
14	0xbb473cff	-0.0030401347
15	0x3b0e73aa	0.0021736422
16	0xbdc8c9fc	-0.098041505
17	0x3b8ac312	0.00423468
18	0xbcbb00e9	-0.022827582
19	0xbb5223be	-0.003206476
20	0x3b9fa883	0.004872383
21	0xbb46c3ed	-0.0030329183
22	0x3b103b77	0.00220081
23	0x3be567e9	0.0070009124

features.1.weight f4 [36, 24, 3, 3]
0	0xbd47a49d	-0.04874097
1	0xbbc32a51	-0.0059559722
2	0x3cadb870	0.02120611
3	0xbc43d3b5	-0.01195233
4	0xbd1a4dbc	-0.03767179
5	0xbcfcaaaa	-0.030843098
6	0x3d603b79	0.054744218
7	0x3d0c45ea	0.034246363
8	0x3c837b84	0.016050108
9	0xbd41861b	-0.047247034
10	0xbc6d1a5e	-0.014471618
11	0xbc80dc1e	-0.01572996
12	0x3d80a992	0.06282343
13	0x3b93c426	0.0045094667
14	0x3d28a8a0	0.04117644
15	0x3d10e132	0.035371013
16	0xbdb275d6	-0.08713882
17	0xbc8abbd9	-0.016935276
18	0xbc91f55d	-0.017817194
19	0x3c31207c	0.010810968
20	0xbd0a4d29	-0.033764992
21	0xba4b8e4d	-0.000776504
22	0x3ce35cbf	0.027754186
23	0x3d8014fe	0.06254004
24	0xbc67f8d5	-0.014158447
25	0xbb82b968	-0.0039893873
26	0xbd3fae23	-0.04679693
27	0xbd090b58	-0.033458084
28	0xbc4f2bb1	-0.012644694
29	0xbd2ec581	-0.042668823
30	0xbd267a4e	-0.040643983
31	0x3c6be268	0.014397241
32	0x3c114b24	0.008868013
33	0x3b94168a	0.0045192884
34	0x3d130119	0.03588972
35	0x3d864073	0.065552615
36	0xbd2be1d6	-0.04196342
37	0x3c0903c4	0.008362714
38	0x3d7c4f42	0.061599024
39	0x3d2a1488	0.041523486
40	0x3c401ef8	0.0117261335
41	0xbcb2d455	-0.021829763
42	0x3d51d490	0.051228106
43	0xbc136f07	-0.008998639
44	0xbd0cdcd8	-0.0343903
45	0xbcd6e9ac	-0.02623447
46	0xbd721147	-0.05909851
47	0x3c895beb	0.016767463
48	0x3c0175b9	0.007901602
49	0x3d463830	0.04839343
50	0x3d1634d0	0.03667146
51	0xbd3e76b9	-0.04649994
52	0xbc5de750	-0.013543919
53	0xbd3bb81e	-0.045829885
54	0x3d0f57c1	0.034995798
55	0xbda2f8c8	-0.079576075
56	0x3d4da1d7	0.05020317
57	0xbb0b22fb	-0.0021230567
58	0xbbcbb520	-0.00621666
59	0x3cc7dd9a	0.02439766
60	0x3c3098be	0.010778604
61	0xbd595f55	-0.05306943
62	0x3cedf71c	0.029048495
63	0xbbb5d8d9	-0.005549532
64	0x3d404a39	0.046945784
65	0xbcaf5b36	-0.021405797
66	0xbd828866	-0.06373672
67	0x3b5dd8cb	0.0033851143
68	0xbd75a7ac	-0.059974357
69	0x3cec1e07	0.028822912
70	0x3d09ad24	0.033612385
71	0x3cc7c8be	0.024387714
72	0xbce26118	-0.027634189
73	0x3d79df93	0.061004233
74	0xbc63acb8	-0.01389616
75	0x3d6c8a8d	0.05774932
76	0x3c0974f3	0.008389699
77	0x3aac3245	0.001313754
78	0xbca0bd7d	-0.019621605
79	0xbc6bc98b	-0.014391313
80	0x3bb1a19c	0.0054208767
81	0xbcd19b51	-0.025586756
82	0xbd36dab4	-0.044642165
83	0x3ceb647c	0.028734438
84	0x3d919325	0.07108144
85	0x3c04fe64	0.008117292
86	0xbd274acb	-0.040842813
87	0xbb54487f	-0.0032391844
88	0x3cbef65d	0.023310835
89	0xbc17ef18	-0.009273313
90	0x3cc277ff	0.02373886
91	0x3cea2462	0.028581802
92	0xbc7e9344	-0.015538041
93	0xbab9bc8c	-0.0014170571
94	0xba32aa88	-0.0006815572
95	0x3c549cef	0.012976869
96	0x3cf42100	0.029800892
97	0xbc61a13c	-0.013771351
98	0xbc3be2ea	-0.011467675
99	0x3cdcf0f7	0.02697037
100	0xbd141216	-0.03615006
101	0xbcedbe3c	-0.029021375
102	0xbc12c686	-0.0089584645
103	0x3ce96129	0.028488712
104	0xbbd58447	-0.006516013
105	0x3d240717	0.040045824
106	0x3d2496a5	0.04018273
107	0xbcee31c2	-0.02907646
108	0x3ca29953	0.019848501
109	0x3c050f63	0.008121344
110	0x3c8376b2	0.01604781
111	0x3d0b7d5e	0.034055106
112	0xbd0f843c	-0.035038218
113	0xbd254c17	-0.040355768
114	0xbcb0aca3	-0.021566695
115	0x3d5c1969	0.05373517
116	0x3d0188ad	0.031624485
117	0xbd653e93	-0.05596788
118	0xbd936f64	-0.071989805
119	0xbd4cf480	-0.05003786
120	0x3cf20b52	0.029546414
121	0x3b9c98c7	0.0047789547
122	0x3c1094a4	0.008824501
123	0x3c4ac88b	0.012376915
124	0x3d4c9347	0.049945142
125	0x3c51a10a	0.012794742
126	0xbd323eda	-0.04351697
127	0x3c92da4d	0.01792636
128	0x3ccaa248	0.024735585
129	0x3c59a155	0.013283093
130	0xbc559e8d	-0.01303829
131	0xbd49912c	-0.049210712
132	0x3c8f4780	0.017490149
133	0xbb6edb0f	-0.0036446487
134	0xbd090976	-0.03345629
135	0x3d6f6d13	0.05845363
136	0x3c432ac4	0.011912052
137	0x3d52e51d	0.05148803
138	0xbd83e999	-0.064410396
139	0x3b1b2e66	0.0023678779
140	0xbd804c86	-0.06264596
141	0xbcf405f5	-0.029787997
142	0x3cf4b4ae	0.029871311
143	0xbc922c0a	-0.017843265
144	0x3d8febda	0.07027407
145	0x3d19b89c	0.037529573
146	0xbcec3fca	-0.02883901
147	0xbd8916a1	-0.06693769
148	0xbcc071d8	-0.023491785
149	0xbc91995a	-0.017773319
150	0xbbb07f3a	-0.0053862603
151	0x3b122cf1	0.002230462
152	0x3c665b6c	0.014059883
153	0xbd99c1fb	-0.07507702
154	0x3d282ee5	0.041060347
155	0xbcaec06c	-0.021331988
156	0x3cdf58a9	0.027263956
157	0x3d310cf9	0.043225262
158	0x3d832274	0.06403056
159	0xbc9a853f	-0.018862365
160	0xbd538d67	-0.051648524
161	0xbd32899c	-0.043588266
162	0x3d0941e3	0.0335101
163	0xbc6b703a	-0.014370019
164	0x3d8e71fe	0.06955336
165	0xbd19810a	-0.037476577
166	0x3c509cb4	0.012732673
167	0xbd345398	-0.044025034
168	0x3bc94a0b	0.00614286
169	0xbc4dd825	-0.01256374
170	0xbc29619b	-0.010338212
171	0xbb6c2a16	-0.0036035827
172	0x3d84b081	0.06478978
173	0xbb1b6ad9	-0.002371481
174	0xbc000b22	-0.007815154
175	0x3b97863e	0.004624157
176	0xbace6fc8	-0.0015749866
177	0x3d124b32	0.035716243
178	0xbcdca1d8	-0.026932642
179	0xbb1b922b	-0.0023738246
180	0xbd4baa76	-0.04972311
181	0x3c5045fb	0.012711997
182	0x3c988af7	0.018620951
183	0x3d6ab869	0.057304773
184	0x3bb071fc	0.0053846817
185	0xbd3208a8	-0.043465286
186	0xbd4d75af	-0.05016106
187	0xbb7f6ca5	-0.003897467
188	0xbce608c8	-0.02808036
189	0xbcb71d22	-0.022352759
190	0x3cbdf986	0.023190271
191	0xbbfc1d2e	-0.007693908
192	0x3d23729e	0.03990423
193	0xbc785a59	-0.015158259
194	0xbc998c19	-0.018743562
195	0xbc8ef4ee	-0.017450776
196	0x3c727f10	0.014800802
197	0x3cb62e09	0.022238748
198	0x3a8be9b3	0.0010674506
199	0x3d48de46	0.0490401
200	0xbd5ce330	-0.0539276
201	0xbd3396fe	-0.04384517
202	0x3d9e8314	0.07739845
203	0x3b993bc5	0.0046763145
204	0xbbd65d23	-0.0065418645
205	0x3c92a631	0.017901512
206	0xbd133182	-0.035935886
207	0x3d0025e2	0.031286128
208	0x3b729da7	0.0037020238
209	0xbcfd9790	-0.03095606
210	0x3d850583	0.06495192
211	0xbd51084e	-0.05103331
212	0x3cb72f11	0.02236131
213	0xbd2abb5f	-0.041682597
214	0x3d98231b	0.07428571
215	0x3c22460b	0.009904395
216	0x3cd37e02	0.025816921
217	0xbc5aac4c	-0.013346743
218	0x3d93839d	0.072028376
219	0xbc26a7b0	-0.010171816
220	0x3c0af5f9	0.008481496
221	0xbb9f8b7a	-0.004868922
222	0x3bc20d4b	0.005921995
223	0xbd2182e3	-0.039431464
224	0xbcc87b0f	-0.024472741
225	0x3d78d12c	0.060746357
226	0xbd06ab31	-0.032878105
227	0x3c7628d9	0.015024387
228	0x3a699aad	0.0008911293
229	0xbd5f08ac	-0.05445163
230	0x3d96bc94	0.07360187
231	0xbb5f3b41	-0.0034062418
232	0xbd37ab78	-0.04484126
233	0x3d27d777	0.040976968
234	0xbce3e2ca	-0.027818102
235	0x3d413a57	0.047174778
236	0xbcd5aadc	-0.026082449
237	0xbd0ce0f4	-0.03439422
238	0x3ca144d4	0.01968614
239	0xbcdefede	-0.02722114
240	0x3d122856	0.035683
241	0x3d35776d	0.044303346
242	0x3c9c7559	0.019098924
243	0xbd02bf80	-0.03192091
244	0xbb25ba50	-0.0025288053
245	0x3d5922b4	0.05301161
246	0xbc97a6bd	-0.018512124
247	0xbd3f614f	-0.04672366
248	0x3d64fad1	0.05590326
249	0xbc6a5b9f	-0.014304071
250	0xbd06a9b3	-0.03287668
251	0x3ce6ded6	0.028182428
252	0xbd019f77	-0.03164622
253	0x3ca0f569	0.01964827
254	0xbd96a3ec	-0.07355484
255	0xbd384365	-0.044986147

features.1.bias f4 [36]
0	0x3aa7742a	0.0012775708
1	0xba095e32	-0.00052401714
2	0x3a9ee3f0	0.0012122374
3	0xba8987f5	-0.0010492789
4	0x3a2ed762	0.0006669668
5	0xbabd6783	-0.0014450405
6	0xbb398d64	-0.0028313035
7	0xbac95565	-0.0015360533
8	0x3ad5bc7e	0.0016306785
9	0xbaa682ba	-0.0012703754
10	0x3a9b3d6b	0.0011843866
11	0xbaaa0d4f	-0.0012973937
12	0xbaabafe2	-0.0013098682
13	0x3ad586a6	0.0016290739
14	0xbabd49a0	-0.0014441498
15	0xba9df0f6	-0.0012049961
16	0xbb2af64e	-0.002608675
17	0x3abd5158	0.0014443798
18	0x3aac6c5e	0.0013154855
19	0x3ab47964	0.0013769087
20	0x3ac4bb60	0.0015009455
21	0x3a5ca799	0.0008417308
22	0x3ab67d58	0.0013922853
23	0x3ad33b2b	0.0016115656
24	0x3a875617	0.0010325339
25	0xba0d12dd	-0.0005381534
26	0x39aaa95f	0.00032551118
27	0xbad5286c	-0.0016262657
28	0x3ab9cdf3	0.0014175758
29	0x3a7e2cea	0.0009696024
30	0x3ab5f4ee	0.0013882199
31	0xba9e87b5	-0.0012094887
32	0x3abef4e5	0.0014568834
33	0x3aaee46a	0.0013343219
34	0xba47a539	-0.00076158677
35	0x3a6522ee	0.00087408617

features.2.weight f4 [48, 36, 3, 3]
0	0x3cb103f9	0.02160834
1	0x3c5c9710	0.0134637505
2	0xbbfd161c	-0.007723583
3	0x3d6893a0	0.05678141
4	0x3ce7a421	0.028276505
5	0xbd849402	-0.06473543
6	0x3b6987d3	0.0035633936
7	0xbc948931	-0.018131824
8	0x3c64a678	0.013955705
9	0xbd4e89d2	-0.050424404
10	0x3c9b051a	0.018923331
11	0xbd0abf78	-0.033874005
12	0xbcfd65a4	-0.030932255
13	0xbce9929d	-0.028512293
14	0x3c3237b6	0.01087754
15	0x3d9b6c22	0.07588984
16	0xbd2894e9	-0.041157637
17	0x3cdf990f	0.027294664
18	0x3cf1cd3b	0.029516807
19	0xbb0c7069	-0.0021429306
20	0xbb8880fa	-0.004165766
21	0x3bef728a	0.0073073553
22	0x3d425372	0.04744286
23	0x3b984a37	0.004647519
24	0xbc54041a	-0.012940431
25	0x3cbbf609	0.022944467
26	0xbc0ed40b	-0.008717547
27	0xbbd1af87	-0.0063990983
28	0xbd0df780	-0.034659863
29	0x3c4a2409	0.012337693
30	0x3c801324	0.015634127
31	0xbd044567	-0.03229275
32	0xbce1a0b0	-0.027542442
33	0x3c9fbcc3	0.019499188
34	0xbd6fc460	-0.058536887
35	0x3c92153b	0.01783239
36	0x3bdf287f	0.0068102474
37	0xba80f1dc	-0.0009837705
38	0x3d97d431	0.07413519
39	0xbd132f37	-0.0359337
40	0xbd2648a0	-0.040596604
41	0x3d1adf58	0.037810653
42	0xbc6af8a7	-0.01434151
43	0x3cca6ee0	0.024711072
44	0x3c560039	0.0130615765
45	0xb9d3d639	-0.00040404664
46	0x3ccae2ee	0.024766412
47	0xbd0371c4	-0.032090917
48	0x3cc0de24	0.023543425
49	0xbd41b3cf	-0.04729062
50	0xbd52794a	-0.0513852
51	0x3d104d11	0.035229746
52	0xbbfe8da0	-0.007768348
53	0xb840e425	-4.5988843e-05
54	0xbc6173ef	-0.013760551
55	0x3badea29	0.005307455
56	0x3cd399aa	0.025830109
57	0x3d5322bd	0.0515468
58	0xbd61511e	-0.055009
59	0xbd2cb233	-0.04216213
60	0x3d055909	0.032555614
61	0xbcb4fc75	-0.022093037
62	0xbcc70214	-0.024292983
63	0xbd4485d3	-0.047979187
64	0x3cea5ff4	0.028610207
65	0xbc494b38	-0.012286
66	0x3d09fd0f	0.0336886
67	0xbcbf2fba	-0.023338187
68	0x3c7cd2af	0.01543109
69	0xbd07a867	-0.033119585
70	0xbd02818d	-0.03186183
71	0x3d0f7d16	0.0350314
72	0x3c73ee90	0.014888421
73	0x3d23b1d5	0.039964516
74	0xbbdaa38f	-0.0066723297
75	0xbd5c8a76	-0.053842984
76	0xbd1f050c	-0.038823172
77	0x3cbdb288	0.02315642
78	0x3d067722	0.032828458
79	0x3b489129	0.00306041
80	0x3c21ca18	0.009874843
81	0x3c0e1c97	0.008673809
82	0x3c76ff6d	0.015075547
83	0xbcee8fcd	-0.029121304
84	0xbc605ea7	-0.013694442
85	0x3d407a00	0.04699135
86	0xbd059e55	-0.0326217
87	0xbd387860	-0.045036674
88	0x3cb785b5	0.022402624
89	0x3bd5cf02	0.0065249214
90	0xbc7b75b9	-0.0153478915
91	0xbd34090c	-0.04395394
92	0x3d6165e5	0.055028815
93	0xbcc0b560	-0.023523986
94	0x3d3239b3	0.043512058
95	0xbcf8bb63	-0.03036279
96	0xba198a55	-0.00058571
97	0x3c1385fd	0.009004113
98	0x3ceaf579	0.028681504
99	0xbcc48b44	-0.023992188
100	0xbd145c6d	-0.036220957
101	0xbd365952	-0.044518776
102	0xbb83fde7	-0.0040280703
103	0x3c8bf032	0.017082307
104	0x3d427f83	0.047484886
105	0xbcee4548	-0.02908577
106	0xbc794757	-0.015214763
107	0x3cef6a76	0.02922557
108	0x3d3bb04a	0.04582242
109	0xbd3fdc9c	-0.04684125
110	0x3c540833	0.012941408
111	0xbd247d8d	-0.040158797
112	0x3ce362a9	0.027757006
113	0xbd59fac6	-0.05321767
114	0xbc7f0c92	-0.015566962
115	0x3ba7b485	0.005117955
116	0x3c023d37	0.007949165
117	0x3caded1c	0.021231227
118	0xbc8ee381	-0.017442467
119	0x3bdd898c	0.0067607816
120	0x3d2d6f0d	0.042342234
121	0xbd0fa1ac	-0.03506629
122	0x3d024f65	0.031813998
123	0xbd247a02	-0.04015542
124	0x3abd2456	0.0014430385
125	0x3d281eb3	0.041044902
126	0x3d200a8c	0.03907256
127	0x3d2be017	0.041961756
128	0xbd3b3b09	-0.045710597
129	0xbd88887a	-0.06666656
130	0x3c6fa70b	0.0146272285
131	0xbc258355	-0.010102113
132	0xbb7c12c6	-0.0038463338
133	0xbcf72056	-0.030166786
134	0x3bb7a3fd	0.0056042657
135	0x3d101094	0.03517206
136	0x3c98128b	0.01856353
137	0xbda5adeb	-0.08089813
138	0x3a9cbfc8	0.0011959011
139	0xba4351d6	-0.0007450854
140	0x3c7d94d9	0.015477383
141	0xbd9f4ee0	-0.07778716
142	0xbb94d3df	-0.0045418586
143	0x3d3cd3aa	0.046100296
144	0xbc35da14	-0.011099357
145	0xbd294b72	-0.041331716
146	0x3d17b607	0.03703883
147	0xbcc76588	-0.024340406
148	0xbaf6576f	-0.0018794368
149	0x3c91855c	0.017763786
150	0xbbc75c88	-0.0060840286
151	0xbcad3712	-0.021144424
152	0x3af532d6	0.0018707167
153	0x3c430d85	0.011905079
154	0xbc9ccd1f	-0.019140778
155	0xbbf5db22	-0.0075029293
156	0xbd244b18	-0.040110677
157	0x3a272e4d	0.0006377444
158	0x3d24c0be	0.040222876
159	0x3ced7360	0.02898568
160	0xbc8be18b	-0.01707532
161	0x3c9f5eef	0.019454448
162	0x3d056784	0.032569423
163	0xbbd29138	-0.006426003
164	0xbbcd33bc	-0.0062622707
165	0x3cb70c97	0.02234487
166	0x3d05ed9b	0.0326973
167	0xbcf801ca	-0.03027429
168	0xbd147851	-0.036247555
169	0x3d34c198	0.044129938
170	0x3bbca0af	0.0057564597
171	0x3d044027	0.032287743
172	0x3cc33dd6	0.023833197
173	0xbb82b9d9	-0.00398944
174	0xbd14ef26	-0.036360882
175	0x3cd898d0	0.026440054
176	0x3c8773f4	0.016534783
177	0x3cd74065	0.026275823
178	0xbbf734cc	-0.0075441357
179	0xbca92abe	-0.020650264
180	0xbc407a5b	-0.011747922
181	0x3cd9228a	0.026505727
182	0x3c9c8e64	0.019110866
183	0xbc93ff6e	-0.018066134
184	0xbce6a67d	-0.02815556
185	0xbcb98f29	-0.022651272
186	0xbce4ef1e	-0.027946051
187	0x3d92aacd	0.07161484
188	0x3bee3cf8	0.0072704516
189	0x3d2ea860	0.042641044
190	0xbd1c4827	-0.038154747
191	0xbc858e29	-0.016303139
192	0xbbfbf913	-0.007689604
193	0x39ee791d	0.00045485134
194	0xbcfba643	-0.030718928
195	0xbc98a02a	-0.01863106
196	0x3c94127e	0.018075224
197	0xbbbbe80e	-0.00573445
198	0xbd417b29	-0.047236595
199	0x3bbed5da	0.005823833
200	0x3d5adec2	0.053435095
201	0x3c497ec2	0.012298288
202	0xbc27485e	-0.010210125
203	0x3cad93b8	0.021188602
204	0xbd071c78	-0.032986134
205	0x3c18276f	0.009286745
206	0x3c08ef77	0.008357874
207	0xbd18bea5	-0.037291188
208	0x3d42326b	0.047411364
209	0xbbc4249e	-0.0059858104
210	0x3d98c30e	0.07459079
211	0xbbd45698	-0.0064800493
212	0xbb4500e6	-0.003006035
213	0xbc9d6f2f	-0.019218056
214	0xbd3154a5	-0.043293614
215	0x3d0e0643	0.03467394
216	0x3bcce0e0	0.006252393
217	0xbc77bb82	-0.015120389
218	0x3c98e2c3	0.018662816
219	0xbcd8d9a3	-0.026470965
220	0xb9618dc9	-0.00021510491
221	0x3d39134a	0.04518441
222	0xbc1117e6	-0.0088557955
223	0xba0496fb	-0.0005057898
224	0x3ce18cbb	0.027532926
225	0x3d216f2a	0.039412655
226	0xbc458cb4	-0.012057472
227	0xb9f9b0f9	-0.00047624836
228	0xbd1c0b3a	-0.038096644
229	0x3cbd540a	0.023111362
230	0xbd6a8910	-0.05725962
231	0xbc69d219	-0.014271283
232	0x3c711a5b	0.014715756
233	0xbc97ba06	-0.01852132
234	0x3c890e9f	0.016730605
235	0xbce99460	-0.028513134
236	0x3cb031ba	0.021508086
237	0x3c26d6f3	0.010183084
238	0x3d1d5020	0.03840649
239	0xbc597a90	-0.01327385
240	0x3c91eb5f	0.017812429
241	0xbbf1f82a	-0.00738432
242	0xb99982f9	-0.00029280016
243	0x3c959496	0.018259328
244	0x3d10e804	0.035377517
245	0xbcce164c	-0.025157116
246	0xbca3e276	-0.020005446
247	0x3c671e44	0.014106337
248	0xbcf8f3ab	-0.030389627
249	0x3c944dd4	0.018103518
250	0x3c00e7a6	0.007867729
251	0xbc1424a4	-0.009041939
252	0xbd04c3c9	-0.032413278
253	0xbab6f5cd	-0.0013958752
254	0x3d1fcc94	0.03901346
255	0x3d6f1809	0.05837253

features.2.bias f4 [48]
0	0x3ab0c158	0.0013485355
1	0xba4294f3	-0.0007422708
2	0xbaa38643	-0.0012475926
3	0x3ac2974e	0.0014846118
4	0xbaa76ac2	-0.0012772905
5	0xba4bd8d6	-0.00077761465
6	0x3ac5e63d	0.0015098524
7	0xbabfe457	-0.0014640194
8	0x3aa2f866	0.0012433648
9	0x3acd8f31	0.0015682933
10	0xbac04d32	-0.0014671443
11	0x3ab105a4	0.0013505709
12	0x3a4d5ec7	0.00078342523
13	0xbac705b4	-0.0015184195
14	0x3a64f214	0.0008733582
15	0x3ac2cd55	0.0014862219
16	0xba9fc9f3	-0.0012190923
17	0x3aa815d0	0.0012823883
18	0x3aac7d02	0.0013159814
19	0x3aa1debf	0.0012349709
20	0xbab3f631	-0.0013729987
21	0xbacd61b7	-0.001566938
22	0x3aa36db1	0.0012468604
23	0xbacb8e12	-0.0015530011
24	0xbaa9bb63	-0.0012949522
25	0xbabd541a	-0.001444462
26	0xbac1ea09	-0.0014794479
27	0xba86eaf1	-0.0010293407
28	0x3acbf5ee	0.0015560964
29	0x3ac9866a	0.0015375142
30	0x3ab23501	0.0013596119
31	0x3aadff3f	0.0013274922
32	0xbac6a9b2	-0.0015156774
33	0x3ac3efe7	0.0014948816
34	0xba6fb624	-0.00091442675
35	0xbaa6015b	-0.0012665199
36	0x3a614a92	0.00085941807
37	0xba8969cb	-0.0010483799
38	0x3a923b3d	0.001115657
39	0xbac6d559	-0.0015169784
40	0x3ac4a528	0.0015002834
41	0xba867b45	-0.0010260126
42	0x3aa1fe69	0.0012359145
43	0xbab119b2	-0.0013511686
44	0x3aafc9f2	0.0013411625
45	0x3abdd371	0.001448257
46	0xbac29faf	-0.0014848615
47	0xba614207	-0.00085929077

features.3.weight f4 [64, 48, 3, 3]
0	0xbc265db6	-0.010154178
1	0xbd411160	-0.04713571
2	0xbd8238c6	-0.06358485
3	0xbc932422	-0.017961565
4	0xbc1abc33	-0.009444284
5	0x3ca5920a	0.020211238
6	0xbaa22bb4	-0.0012372644
7	0xbc3f539b	-0.011677648
8	0xbcb8e6ad	-0.022570932
9	0x3d7f1126	0.062272213
10	0x3cf42d23	0.02980668
11	0xbc11cdb3	-0.00889914
12	0x3db95f1e	0.09051345
13	0x3cc742ea	0.0243239
14	0xbd0c5f17	-0.034270372
15	0x3d4dbeea	0.050230898
16	0x3ab1bf9c	0.0013561132
17	0xb808006e	-3.2425327e-05
18	0x3d4d53a3	0.05012859
19	0x3c23b3fb	0.009991641
20	0x3d7c62e8	0.06161776
21	0xbc116425	-0.008873974
22	0xbc1791cc	-0.009251069
23	0x3d08bc9e	0.033383004
24	0x3d0b6e18	0.03404054
25	0xb953b2f9	-0.000201892
26	0xbcc1d3ce	-0.023660567
27	0x3bb07248	0.005384717
28	0xbce14950	-0.027500778
29	0xbd09ee3f	-0.033674475
30	0xbd4415d6	-0.047872387
31	0x3c5b247d	0.013375399
32	0x3cbe555b	0.02323406
33	0xbc2fbf3d	-0.010726747
34	0xbd5c0723	-0.053717744
35	0xbcba86a0	-0.022769272
36	0x3ca62b07	0.020284189
37	0xbc5a7a49	-0.013334819
38	0x3ce0efdb	0.027458122
39	0xbd5ceeaa	-0.053938545
40	0xbd4b5f94	-0.049651697
41	0x3ced82de	0.028993066
42	0x3d0dacf1	0.034588758
43	0xbc923e6b	-0.017852029
44	0x3d19b841	0.037529234
45	0xbc416909	-0.0118048275
46	0xbd0e5fac	-0.03475921
47	0xbca7b21c	-0.020470671
48	0x3d70b6cb	0.058768075
49	0x3c634b2e	0.013872905
50	0x3cc10fd3	0.023567116
51	0x3d7507b4	0.0598218
52	0x3c9eaefc	0.019370548
53	0xbc6547bb	-0.013994153
54	0xbce6974d	-0.028148318
55	0xbc50d238	-0.012745433
56	0x3d33c0c4	0.043885008
57	0xbd7751db	-0.060380798
58	0xbd1b624d	-0.037935544
59	0x3d372eb6	0.04472228
60	0xbcf7d491	-0.030252727
61	0x3ccadce4	0.024763532
62	0xba763602	-0.0009392203
63	0x3cd2f3ed	0.025751079
64	0xbd213bfd	-0.03936385
65	0xbd2b5c27	-0.04183593
66	0x3c132122	0.008980067
67	0x3bc6a437	0.0060620564
68	0x3c1e28d8	0.009653293
69	0x3ce29b0d	0.027661825
70	0x3d3babe6	0.045818232
71	0x3b875657	0.0041301656
72	0xbcc0b7ac	-0.023525082
73	0xbd418b9c	-0.047252283
74	0xb981fe05	-0.00024794057
75	0x3cb533a8	0.022119358
76	0xbcfcffc0	-0.03088367
77	0xbd316bbf	-0.043315645
78	0xbc0aeca9	-0.008479276
79	0x3c2e96c7	0.010656065
80	0x3c778643	0.015107694
81	0x3cf5a7dc	0.029987268
82	0xbd68e787	-0.056861427
83	0xbc462acd	-0.012095165
84	0x3bfdb0cb	0.0077420226
85	0xbb1ca05d	-0.0023899295
86	0x39940670	0.00028233556
87	0x3cd2229c	0.025651269
88	0xbc5798ef	-0.013159021
89	0x3ba10eae	0.00491508
90	0x3cad4fb6	0.021156173
91	0xbccb668f	-0.024829177
92	0xbd3d59fc	-0.046228394
93	0x3d20ad61	0.039227847
94	0x3b97e10a	0.004634981
95	0xbc706434	-0.014672328
96	0xbcad20dd	-0.021133834
97	0x3d3c0842	0.045906313
98	0x3c98fd77	0.018675549
99	0xbd240a12	-0.040048666
100	0xbc75e841	-0.015008987
101	0xbcea1f7d	-0.028579468
102	0x3cccb48d	0.024988437
103	0xbca69bfe	-0.020338055
104	0xbce2d19d	-0.027687842
105	0x3ccde3d3	0.02513305
106	0xbc9c38dc	-0.019070081
107	0xbc85a2ad	-0.016312921
108	0xbd5d824d	-0.054079343
109	0xbd1a0574	-0.037602857
110	0x3c92e411	0.017931016
111	0xbd11e0cb	-0.03561477
112	0xbc853fed	-0.016265834
113	0x3b4f8a15	0.0031667997
114	0x3c2701a4	0.010193262
115	0xbcb68aca	-0.022282977
116	0x3b2c6728	0.0026306603
117	0xbcc7d307	-0.024392618
118	0xbd4e851a	-0.050419904
119	0x3bf1349a	0.007361007
120	0x3be9472a	0.007119079
121	0x3cd9da42	0.026593331
122	0xbc5bc459	-0.013413512
123	0x3d31974c	0.04335718
124	0xbc6e7339	-0.014553838
125	0x3d3f7df4	0.046750978
126	0xbafa3f7f	-0.001909241
127	0xbcb4275f	-0.02199143
128	0xbce2bf7e	-0.027679201
129	0xbba0e8ee	-0.00491058
130	0xbc440c72	-0.011965858
131	0xbcecf839	-0.028926956
132	0x3c0e5419	0.008687043
133	0xbc6a8d15	-0.014315863
134	0xbceb43b1	-0.028718801
135	0x3bd7f95e	0.006591006
136	0x3c77023c	0.015076216
137	0xbc3b2050	-0.011421278
138	0x3c0f5bcf	0.008749916
139	0x3c27cf60	0.010242313
140	0xbc5a12c4	-0.013310138
141	0xbd3f6e08	-0.046735793
142	0xbd059253	-0.03261025
143	0xbcfba33d	-0.030717487
144	0xbc0228b8	-0.007944278
145	0xbd4e1c4a	-0.050319947
146	0x3beb0828	0.007172603
147	0xbb95bb49	-0.0045694453
148	0xbc55999f	-0.013037114
149	0x3cdcd382	0.026956324
150	0x3d0973c5	0.033557672
151	0x3c404999	0.011736297
152	0x3d361b3f	0.044459578
153	0xbb708df7	-0.0036705711
154	0xbc8ef51e	-0.017450865
155	0xbcd84f78	-0.026405081
156	0x3d22fe90	0.03979355
157	0x3c868c7b	0.016424408
158	0xbcf44497	-0.029817862
159	0xba800ed0	-0.000977004
160	0x3cc8b120	0.024498522
161	0x3cba4771	0.022739144
162	0xbcea5079	-0.028602825
163	0xbc655720	-0.013997823
164	0x3b03f714	0.0020136284
165	0xbc87d86f	-0.016582696
166	0x3c8df947	0.017330779
167	0xbc3f4107	-0.011673219
168	0xbd8149fe	-0.06312941
169	0x3b486a86	0.003058107
170	0xbbc5a5af	-0.006031714
171	0x3c22c45c	0.009934511
172	0xbce7983f	-0.028270839
173	0x3ccfce1b	0.025366833
174	0xbd518378	-0.05115077
175	0x3a4a087e	0.0007706954
176	0x3bd26f74	0.0064219777
177	0xbd4b4de1	-0.049634818
178	0x3b91762b	0.0044391355
179	0xbd216e25	-0.039411683
180	0xbcfb313a	-0.030663121
181	0x3d1e9229	0.038713608
182	0x3937c99f	0.0001752735
183	0x3c2319a2	0.009954842
184	0x3d149c0a	0.036281623
185	0xbb3e09ce	-0.0028997543
186	0xbd4d2eb0	-0.050093353
187	0x3c87027f	0.016480682
188	0x3ca41fff	0.020034788
189	0xbc83a3fd	-0.016069407
190	0xbc828567	-0.015932752
191	0x3d820ed2	0.06350483
192	0xbd0acaf1	-0.033884946
193	0x3d575aa8	0.05257669
194	0x3d2ad0cd	0.041703034
195	0xbcccf5af	-0.025019495
196	0xbcea7974	-0.028622366
197	0xbc374c95	-0.011187692
198	0xbcde21f1	-0.027115794
199	0xbcb19ef4	-0.02168224
200	0xbd4d1519	-0.05006895
201	0x3d7e975f	0.062156077
202	0x3d085536	0.03328439
203	0xbd44b059	-0.04801974
204	0x3d38b00d	0.04508977
205	0xbc5bc6bb	-0.01341408
206	0xbcdb2ec4	-0.026755698
207	0x3d1ad15b	0.037797313
208	0xbc5c59cc	-0.013449144
209	0xbd4a18f1	-0.049340192
210	0x3d034d2a	0.03205601
211	0xbc1c9a9d	-0.009558347
212	0xbbd2b031	-0.006429695
213	0x3d664907	0.056221988
214	0xbc3b31e0	-0.011425465
215	0x3c75681e	0.014978437
216	0x3b9e626c	0.00483351
217	0x3c5dd003	0.013538363
218	0xbcccb9dc	-0.024990968
219	0x3d2689d0	0.040658772
220	0xbc3fb957	-0.011701903
221	0x3d393af9	0.045222256
222	0x3cc07a72	0.023495886
223	0x3cbc0760	0.022952735
224	0xbd11004b	-0.03540067
225	0x3a9f388f	0.0012147593
226	0xbd019b86	-0.03164246
227	0x3bf38897	0.0074320543
228	0x3ce7393e	0.028225537
229	0x3c4159c5	0.011801188
230	0xbc59d743	-0.013295951
231	0xb906d646	-0.00012859059
232	0x3c9cc19e	0.019135293
233	0x3cac0ec1	0.021003129
234	0x3d026dab	0.03184287
235	0x3c9c6b36	0.01909409
236	0xbc90cf2f	-0.017676918
237	0x3d5fcd28	0.05463901
238	0xbc596d13	-0.013270634
239	0x3b9166db	0.00443731
240	0xbbdb1e78	-0.006686982
241	0xbcbb338c	-0.022851728
242	0x3cb392ca	0.02192058
243	0x3cada358	0.021196052
244	0x3c0de4bf	0.008660494
245	0x3c744cab	0.014910857
246	0x3be1599b	0.006877137
247	0x3bc135d1	0.005896308
248	0x3d4aa050	0.049469292
249	0xbc2a06b0	-0.010377571
250	0x3c957c21	0.018247666
251	0xbcf01b2c	-0.029309832
252	0xbd72211d	-0.05911361
253	0xbd3c646f	-0.04599422
254	0x3cbf553a	0.023356069
255	0x3c495083	0.012287262

features.3.bias f4 [64]
0	0xba0b58ba	-0.00053156505
1	0x3a88f5e8	0.0010449262
2	0x3ace95e0	0.0015761219
3	0xbda30980	-0.07960796
4	0xbab59527	-0.0013853655
5	0x3acba9cf	0.0015538278
6	0x3ac2ae56	0.0014852982
7	0xbd9107fc	-0.07081601
8	0xbca4e9d2	-0.020131025
9	0x3db498a4	0.088181764
10	0x3ad09b3e	0.0015915406
11	0xbaab507a	-0.0013070249
12	0xbd3edbf6	-0.04659649
13	0xbabd3289	-0.0014434616
14	0xbac8ea58	-0.0015328629
15	0x3ab8468e	0.0014059113
16	0xba84c523	-0.0010129552
17	0xbac9e687	-0.0015403786
18	0x3ab45bee	0.0013760307
19	0xbab42023	-0.0013742488
20	0x3992db90	0.00028010877
21	0x3ab8afb4	0.001409045
22	0xbd165e1f	-0.036710855
23	0xba67d3e2	-0.00088435237
24	0x3ad1a261	0.0015993827
25	0x3acdd377	0.001570328
26	0x3acab54c	0.0015465408
27	0xba7e813d	-0.0009708589
28	0x3ad874bf	0.0016514285
29	0xbacb8f3e	-0.001553036
30	0x3abc7bdb	0.0014380174
31	0x3ad6d0d4	0.001638914
32	0xbaca6146	-0.0015440367
33	0xba8caa32	-0.0010731874
34	0xbd96f5ce	-0.07371102
35	0x3ac5c38f	0.0015088188
36	0xbaa2ddb2	-0.001242569
37	0xba79ed29	-0.0009533936
38	0x3acb8bef	0.0015529374
39	0x3abd5124	0.0014443737
40	0xbac74c7c	-0.0015205289
41	0xbacd1ab6	-0.0015648219
42	0x3aae5e53	0.0013303257
43	0x3aaa7640	0.0013005212
44	0x3ab0b3b8	0.0013481295
45	0x3acd3efa	0.0015659027
46	0xbab9093f	-0.0014117135
47	0xbab6d7b7	-0.0013949786
48	0x3acd4244	0.0015660007
49	0xbab2d4b4	-0.0013643713
50	0xbade95a9	-0.0016981858
51	0x3a8b5568	0.0010630311
52	0x3ac4641f	0.0014983452
53	0xba8b8bb9	-0.0010646499
54	0xbaa073ea	-0.0012241576
55	0x3aa71aeb	0.0012749111
56	0xbab9a778	-0.001416429
57	0xbacf23c8	-0.001580351
58	0xbab81ca7	-0.0014046625
59	0x3aa4a692	0.0012561849
60	0xba756286	-0.00093606894
61	0x3acbc776	0.0015547115
62	0xbaa5ab03	-0.0012639466
63	0x3a8b1f16	0.0010614123

features.4.weight f4 [10, 64, 3, 3]
0	0xbc03dd67	-0.008048392
1	0x3cb71088	0.02234675
2	0x3d3c2668	0.045935065
3	0x3c247a50	0.010038927
4	0x3cbdf39e	0.023187455
5	0x3d0ec4f3	0.034855794
6	0x3d09ce1f	0.033643838
7	0x3c0a59a1	0.008444221
8	0xbd08d535	-0.033406455
9	0xbd36dc50	-0.0446437
10	0x3ccf4b18	0.025304362
11	0x3c88a625	0.016680786
12	0xbbc0c70d	-0.0058831037
13	0xbb0ebd8b	-0.0021780457
14	0xbc77e469	-0.015130141
15	0xbce5f204	-0.028069504
16	0x3d31e12c	0.04342763
17	0xbb1dc6b1	-0.0024074728
18	0x3ced4bf1	0.028966876
19	0xbd21cb87	-0.03950074
20	0xbd1542a6	-0.036440514
21	0x3c13d40c	0.009022724
22	0x3cec97a7	0.028880907
23	0xbca31672	-0.019908164
24	0xbab30573	-0.001365824
25	0x3c9a73a0	0.018853962
26	0x3cc3b97b	0.023892155
27	0xbc8df40f	-0.01732829
28	0xbda590c9	-0.08084256
29	0xbd95ee39	-0.07320828
30	0xbda53d6e	-0.080683574
31	0xbc23c50d	-0.009995711
32	0xbd88ff2f	-0.066892974
33	0xbdac10a6	-0.08401613
34	0xbda85fd7	-0.08221405
35	0xbd93406a	-0.071900204
36	0x3cb4a5d9	0.022051739
37	0x3c474303	0.012161973
38	0x3cb3681c	0.02190023
39	0x3c502fdd	0.012706724
40	0xbccdbb26	-0.025113653
41	0x3bfb19b9	0.0076629785
42	0x3ca076f6	0.019587975
43	0x3ce5e0f6	0.028061371
44	0xbc500337	-0.012696079
45	0xbc916e31	-0.017752739
46	0xbbff0a9d	-0.0077832476
47	0x3d1ad412	0.037799902
48	0xbcaa6833	-0.02080164
49	0xbd0fdd04	-0.035122886
50	0x3c9cdf35	0.019149402
51	0x3c0973f7	0.008389465
52	0x3c8e6509	0.017382162
53	0x3ca2e341	0.019883754
54	0x3ce8482c	0.028354727
55	0xbd3d8fec	-0.046279833
56	0xbd617743	-0.055045377
57	0x3cf4d3be	0.029886123
58	0xbb14b8c6	-0.0022693141
59	0xbc7f5e30	-0.015586421
60	0xbcde8e39	-0.027167426
61	0x3cff9a5a	0.03120153
62	0x3ca02571	0.019549103
63	0xbcc31127	-0.02381189
64	0xbd918ff6	-0.071075365
65	0xbcb4209e	-0.02198821
66	0xbd716eb1	-0.058943454
67	0xbd41b2a4	-0.047289506
68	0xbccbed9e	-0.024893578
69	0xbd5a2e2d	-0.053266693
70	0xbd7bc71d	-0.061469186
71	0xbd0a548d	-0.03377204
72	0xbaf240bc	-0.0018482427
73	0xbc9e474a	-0.019321103
74	0x3c02d81f	0.007986098
75	0xbc3aa0bb	-0.01139086
76	0xbc185cf6	-0.009299507
77	0xbcc73781	-0.024318459
78	0xbc85cdd6	-0.016333502
79	0xbcb6ccc9	-0.022314446
80	0xbc85e443	-0.016344195
81	0x3cabb021	0.020958008
82	0x3d88f198	0.06686705
83	0x3d803d14	0.0626165
84	0x3d952316	0.07282083
85	0x3d0e9632	0.034811206
86	0x3d95fa85	0.073231734
87	0x3d27af37	0.040938582
88	0x3d96f093	0.07370105
89	0x3d4ccc0b	0.049999278
90	0x3d13a064	0.036041632
91	0xbc542464	-0.012948129
92	0x3d098b8e	0.033580355
93	0xbc634227	-0.013870752
94	0xbc071325	-0.0082443105
95	0x3d251fcf	0.04031354
96	0x3c1e7cd6	0.009673318
97	0xbc8b3fd5	-0.01699821
98	0xbc739591	-0.014867202
99	0xbc1346a9	-0.008989015
100	0x3c872ead	0.016501749
101	0x3cedbcab	0.029020628
102	0x3ca02c5e	0.019552406
103	0xbc66c4c4	-0.0140849985
104	0x3bf3d8b7	0.007441606
105	0x3c92351a	0.017847586
106	0xbb8a1388	-0.004213754
107	0x3c443c26	0.011977231
108	0xbd1de7d5	-0.03855117
109	0xbd21021f	-0.039308663
110	0x3c8cb8ea	0.017178018
111	0xbd23c193	-0.03997953
112	0xbd5ea3a6	-0.054355286
113	0xbd5beaad	-0.0536906
114	0xbd4494f9	-0.047993634
115	0xbc2ba9c5	-0.010477488
116	0xbcf8ba7e	-0.030362364
117	0xbcaf039d	-0.021364028
118	0xbcba6e51	-0.022757681
119	0x3bd199f5	0.006396527
120	0xbc97ac9c	-0.018514924
121	0xbc26d397	-0.010182283
122	0x3d129c48	0.035793573
123	0x3d14cb7f	0.03632688
124	0xbaa4854b	-0.0012551931
125	0x3d002ce3	0.031292807
126	0xbcb83035	-0.022483924
127	0x3d088c35	0.033336837
128	0x3c908f39	0.017646419
129	0x3c473e27	0.012160814
130	0xbd35a9cc	-0.044351384
131	0x3b2c2340	0.0026266128
132	0xbcae63cb	-0.02128782
133	0xbb8e8b5e	-0.00435011
134	0x3cf674c6	0.030084979
135	0xbd40af0c	-0.047041938
136	0xbb032d55	-0.0020016034
137	0x39c121cb	0.00036837006
138	0x3c839b9f	0.016065417
139	0x3c7dc0a0	0.01548782
140	0xbb997526	-0.0046831546
141	0x3c77d7a1	0.0151270935
142	0xbd216153	-0.039399456
143	0x3d0410b4	0.03224249
144	0xbc6729db	-0.0141091
145	0xbd0a2522	-0.03372682
146	0xbcbfff99	-0.023437308
147	0x3c897a7d	0.01678204
148	0xbbfdd915	-0.0077468255
149	0xbd1bb271	-0.03801197
150	0xbd08bf4b	-0.033385556
151	0x3c53cb71	0.012926922
152	0x3ccf9051	0.02533737
153	0xbc1f0ab8	-0.009707145
154	0x3c2ebfca	0.010665843
155	0x3cb9db47	0.022687567
156	0xbc7a6b38	-0.015284352
157	0xbd19f2bb	-0.037585
158	0x3d3b1c6e	0.04568141
159	0x3c99481e	0.018711146
160	0x3cfeeafb	0.031117907
161	0xbb7e5026	-0.0038805096
162	0xbc914ac3	-0.017735844
163	0xbcff959d	-0.03119927
164	0xbbdb9de5	-0.006702172
165	0xbd159b83	-0.03652526
166	0x3c9d6242	0.019211892
167	0xba3dec22	-0.00072449644
168	0x3d0df020	0.03465283
169	0x3cba5c00	0.022748947
170	0xbd014b8e	-0.031566195
171	0x3b647cd3	0.003486444
172	0xbb1bb1f9	-0.0023757203
173	0xbd099db9	-0.03359768
174	0x3cb7b549	0.02242531
175	0xbbb4d4d1	-0.0055185338
176	0xbc2ec77f	-0.010667681
177	0xbabc5aff	-0.0014370381
178	0xbc310a1c	-0.010805633
179	0xbc6ba9f3	-0.014383781
180	0x3c0b10ab	0.008487861
181	0x3b57bc92	0.0032918793
182	0xbbbc3dae	-0.0057446575
183	0x3d3c63b5	0.045993526
184	0xbca517b4	-0.020152904
185	0xbccbe065	-0.024887273
186	0xbcc67c3f	-0.024229167
187	0xbc93f3a3	-0.018060511
188	0x3d1960e7	0.03744593
189	0x3c91b1e1	0.017785015
190	0xbc34a1d7	-0.011024914
191	0xbc8b9bc5	-0.01704205
192	0xbcd9b934	-0.02657757
193	0x3a6d9e33	0.0009064406
194	0xbcc66707	-0.02421905
195	0x3bafc817	0.0053644287
196	0xbd11c818	-0.035591215
197	0xbd09ee50	-0.033674538
198	0xbd1799de	-0.037011974
199	0xbcd07be1	-0.025449695
200	0xbca037f7	-0.019557936
201	0xbcf8a47c	-0.03035187
202	0xbcdc6c6e	-0.026907172
203	0xbcd96ed0	-0.026542097
204	0xbd68d4ea	-0.056843676
205	0xbd224e09	-0.0396252
206	0xbd679206	-0.056535743
207	0xbc0b96e4	-0.008519862
208	0x3d11928e	0.035540156
209	0xbc8b6da8	-0.017020062
210	0xbcc49a86	-0.023999464
211	0xbd0222fc	-0.031771645
212	0x3d04c37a	0.032412983
213	0xbbcc9dbb	-0.006244389
214	0xbd3098b8	-0.043114394
215	0x3c81fb0e	0.015866783
216	0xbc2fcb4e	-0.010729624
217	0x3ba495a2	0.0050227204
218	0xbcf2d182	-0.029640917
219	0x3c2dcb98	0.010607623
220	0x3cd000c8	0.025390998
221	0xbcf79a8e	-0.030225065
222	0x3d009f05	0.031401653
223	0xbd02d414	-0.031940535
224	0xbcb3fce3	-0.021971172
225	0x3cf60f8e	0.030036714
226	0xbcde7397	-0.027154727
227	0xbd02b897	-0.03191432
228	0x3ce18efe	0.027534004
229	0x3c0b255e	0.008492796
230	0xbcf4277b	-0.029803982
231	0xbc10c52e	-0.008836074
232	0x3d1e018b	0.03857569
233	0x3d1da449	0.038486753
234	0x3adb3887	0.001672522
235	0xbc18e6ab	-0.009332339
236	0xbcb8a5a2	-0.022539917
237	0xbc2d37f0	-0.010572419
238	0x3cf2818f	0.029602794
239	0xbce350b5	-0.027748445
240	0x3ca2eee9	0.019889312
241	0x3bdeb7a2	0.006796793
242	0x3cf86fc7	0.030326737
243	0xbbaab8e7	-0.0052100304
244	0x3cd921af	0.02650532
245	0xbd03566b	-0.032064836
246	0xbcf35bf0	-0.029706925
247	0x3cacbc4d	0.021085883
248	0x3ce65f3e	0.028121587
249	0x3c857f53	0.016296064
250	0x3c076d32	0.00826578
251	0x3ca11626	0.019663882
252	0xbc841a22	-0.016125742
253	0xbd29775d	-0.0413736
254	0x3c962cb1	0.018331857
255	0x3c4b21a0	0.012398154

features.4.bias f4 [10]
0	0x3e00eb4f	0.12589763
1	0xbca02a44	-0.019551404
2	0xbc80ea46	-0.01573671
3	0x3e0ef50b	0.13960664
4	0xbd99d123	-0.07510593
5	0xbcab7188	-0.02092816
6	0x3ca39d39	0.01997243
7	0xbbef1b89	-0.0072969836
8	0xbe2ceba7	-0.16886769
9	0xbd951386	-0.072791144

classifier.0.weight f4 [10, 3240]
0	0xbaebe4c2	-0.0017997252
1	0xbc310c0f	-0.010806098
2	0x3c3658e3	0.011129591
3	0x3c79dd67	0.01525054
4	0xba5d0153	-0.0008430678
5	0x3c5c0775	0.013429512
6	0x3c07e90c	0.008295309
7	0x3b677315	0.0035316397
8	0x3ba937b3	0.0051641106
9	0x3b30a19c	0.0026951795
10	0xbc394401	-0.011307717
11	0x3ae5316e	0.0017486045
12	0xbc70954b	-0.014684032
13	0x3c909413	0.017648732
14	0x3c2ab158	0.010418259
15	0xbbbb72f4	-0.0057204906
16	0x3c02db31	0.00798683
17	0x3c5d2c26	0.013499295
18	0x3c71c801	0.014757157
19	0xbb970501	-0.004608751
20	0xbb1b001a	-0.0023651184
21	0x3c85883a	0.01630031
22	0x3bfbe134	0.0076867584
23	0xbbf8acd0	-0.00758896
24	0x3c776fd6	0.015102347
25	0xbbe6c412	-0.0070424164
26	0xbc1e0765	-0.009645318
27	0xbc848bcd	-0.016179943
28	0xb9b0779d	-0.00033658455
29	0xbb706b15	-0.003668492
30	0x3bfa339c	0.007635547
31	0x3a4f6d63	0.0007912723
32	0xbc3fbbbf	-0.011702477
33	0xb90cb07b	-0.00013417185
34	0xbc6aecb6	-0.014338663
35	0x3ca8bb48	0.020597115
36	0xbc607e81	-0.013702036
37	0xbc1c757e	-0.009549497
38	0xbbce1bf6	-0.0062899543
39	0x3c939902	0.018017296
40	0x3c2268f3	0.009912717
41	0xbc21aa58	-0.009867273
42	0xbc6a72df	-0.014309614
43	0x3c53fb60	0.01293835
44	0xbbf8d010	-0.0075931624
45	0xbbbb7e6d	-0.0057218582
46	0x3c8bb45c	0.017053775
47	0x3bdc62f7	0.0067256647
48	0x3c0ff571	0.008786545
49	0x3c1e6461	0.009667487
50	0x3b89cd6f	0.004205398
51	0x3bdc9e9c	0.006732775
52	0x3c655a2c	0.013998549
53	0xbc55dac5	-0.013052647
54	0xbc272b56	-0.010203203
55	0xbc6800fc	-0.014160391
56	0x3c911df6	0.017714482
57	0x3bd947b2	0.006630861
58	0xbb36613b	-0.002782895
59	0x3c4b4fba	0.012409145
60	0xbc1917d9	-0.009344065
61	0xbaead577	-0.0017916401
62	0x3b84e114	0.0040551517
63	0x3c0daf37	0.0086477315
64	0xbbc9fa26	-0.006163853
65	0x3bf8967b	0.007586298
66	0xbb5af40e	-0.0033409628
67	0xbc186a38	-0.009302668
68	0xbb153ad4	-0.002277066
69	0xbb73c422	-0.0037195762
70	0x3b94a929	0.004536767
71	0x3c239275	0.009983649
72	0x3c764f71	0.015033589
73	0x3c025b38	0.007956319
74	0x3c81a719	0.015826749
75	0xbc2df103	-0.010616544
76	0x3c143b78	0.009047382
77	0xbc8bd9a3	-0.01707155
78	0xbbaa896c	-0.0052043702
79	0xba222da1	-0.0006186609
80	0x3c55fe06	0.013061052
81	0xbc2a1166	-0.010380125
82	0xbbb43694	-0.0054996703
83	0xbb35436a	-0.002765859
84	0xbc876481	-0.016527416
85	0xbb842812	-0.004033097
86	0x39f3ae0e	0.00046478253
87	0xbbcf382d	-0.0063238353
88	0xbbf2fc21	-0.00741531
89	0xbc201d91	-0.009772674
90	0x3c05856f	0.008149489
91	0x3b6dcd3a	0.0036285655
92	0xbc8c4d06	-0.017126571
93	0xbbc4ea70	-0.0060093924
94	0xbc81a22d	-0.015824402
95	0xbbf531d8	-0.0074827485
96	0x3bed336f	0.0072387974
97	0xbb3d5a1f	-0.0028892828
98	0xbc758620	-0.014985591
99	0x3b99e654	0.0046966467
100	0x3bf5336d	0.007482937
101	0xbc9a520b	-0.01883795
102	0x391beae8	0.00014869461
103	0xbb838f30	-0.004014872
104	0x3b57e7d7	0.0032944584
105	0x3c3d64e3	0.011559698
106	0xbc431c2a	-0.01190857
107	0xbc9718ce	-0.018444445
108	0xbc314c6f	-0.010821446
109	0xbba806fa	-0.005127785
110	0x3c40bb60	0.011763424
111	0x3bbd0595	0.0057684877
112	0x38663f54	5.4895252e-05
113	0xbc10c773	-0.008836615
114	0x39e9a749	0.0004456586
115	0xbbbb8523	-0.0057226582
116	0xbbfab6e8	-0.0076511987
117	0xbcae49ce	-0.021275427
118	0x3bd9c075	0.006645257
119	0x3c4b2d57	0.012400947
120	0xbc0ffbcf	-0.008788063
121	0xbafacec4	-0.0019135107
122	0x3c365028	0.011127509
123	0x3a986546	0.0011626862
124	0xbbee2d6a	-0.0072685974
125	0x3bdf602a	0.0068168836
126	0x3c4e2700	0.0125825405
127	0xbb27832e	-0.0025560367
128	0xbc9f01b0	-0.019409984
129	0xbc8df394	-0.017328061
130	0xbb9e29c2	-0.0048267553
131	0x3b1df81e	0.0024104188
132	0x3bb76892	0.0055971825
133	0x3bd611f6	0.006532903
134	0x3c45c6c3	0.012071314
135	0x3c4fbea1	0.012679727
136	0xbbf220a6	-0.007389146
137	0xbc89eb20	-0.01683575
138	0xbbab73ec	-0.005232325
139	0xbc871270	-0.016488284
140	0x3aade819	0.0013268023
141	0xbbbe64d6	-0.0058103604
142	0x3c327b4a	0.010893652
143	0x3c6e6030	0.0145493
144	0x3b89ae30	0.004201673
145	0xbbe6d4b9	-0.0070444015
146	0xbc0fc3dd	-0.008774725
147	0xbc3cf22d	-0.011532349
148	0xbc992489	-0.01869418
149	0x3a1971e4	0.0005853458
150	0xbc7e1423	-0.015507731
151	0x3c36b254	0.011150915
152	0x3b55ce2d	0.003262411
153	0x3bd540f7	0.0065079886
154	0xbb5b35a4	-0.003344872
155	0x3c0a47e2	0.00843999
156	0x3bcc0d16	0.006227146
157	0xbc2a0813	-0.010377902
158	0xbb837c31	-0.0040126075
159	0xbb8cac91	-0.0042930325
160	0xbbd0ca30	-0.006371759
161	0xbbd941d1	-0.0066301604
162	0x3c7d7f4f	0.015472247
163	0x3bc3112f	0.005952976
164	0xbc9916ee	-0.018687692
165	0x3bbafb64	0.0057062376
166	0xbb6bbd4c	-0.0035970984
167	0xbc27bfae	-0.010238571
168	0x3c54c992	0.012987511
169	0x3b8ffeaa	0.004394372
170	0xbb93dc17	-0.0045123207
171	0x3c7fb1b4	0.015606333
172	0xbc3f28bf	-0.0116674295
173	0x3c0a13f9	0.008427613
174	0xbc322eb7	-0.0108753955
175	0x3c868735	0.016421894
176	0xbbf55366	-0.0074867485
177	0xbbcfab10	-0.006337531
178	0x3b2342e2	0.0024911691
179	0xbb82411e	-0.0039750477
180	0x3c62cb7b	0.013842459
181	0x3b4fdbbc	0.0031716665
182	0xbc3e0114	-0.011596937
183	0x3c8b27a1	0.01698667
184	0x3c1bc244	0.009506766
185	0x3ca0ed42	0.019644383
186	0xbc1010c0	-0.008793056
187	0xbbf0dea0	-0.0073507577
188	0xbbe6a8e5	-0.0070391768
189	0x3c14d818	0.009084724
190	0xbc0de821	-0.008661301
191	0x3bb38753	0.0054787784
192	0x3b329ccc	0.0027254103
193	0x3ca3f742	0.020015363
194	0x3cacf987	0.021115078
195	0x3b899ad1	0.0041993638
196	0xbb99a637	-0.004689004
197	0x3cae4b81	0.021276237
198	0x3b9e0e75	0.0048235008
199	0xbb7547dc	-0.0037426865
200	0x3c6b0904	0.014345411
201	0xbbefc717	-0.0073174345
202	0xbc29c385	-0.010361557
203	0xbc08dfa6	-0.008354103
204	0x3bc83126	0.0061093746
205	0x3b2c99e5	0.0026336845
206	0xbbd1c95b	-0.0064021773
207	0x3c445359	0.011982762
208	0x3c80b42f	0.015710918
209	0xbadc94df	-0.0016829035
210	0x3cbfed05	0.02342845
211	0xba4a4b62	-0.00077169214
212	0x38e64c82	0.00010981505
213	0xbb8093ba	-0.0039238604
214	0x3be942a6	0.007118541
215	0x3c6e48af	0.014543696
216	0x3b0c3183	0.0021391816
217	0xbc500166	-0.012695646
218	0x3c38498d	0.011248005
219	0x3c97537f	0.018472431
220	0x3b1fd12b	0.0024386148
221	0xbbe6c2ae	-0.0070422506
222	0xbb3f2cd4	-0.0029171007
223	0x3cb39c3b	0.021925082
224	0x3ca1dc5b	0.019758394
225	0x3c172309	0.009224662
226	0x3cd62877	0.026142342
227	0xbbe130d6	-0.006872277
228	0x3c887eea	0.01666208
229	0x3c266346	0.010155505
230	0x3c6b6248	0.014366694
231	0x3cdbb62c	0.026820265
232	0x3c2db1f9	0.010601514
233	0x3a7bdc91	0.0009607757
234	0x3caffdad	0.021483267
235	0xbb523fba	-0.003208144
236	0x3b862da8	0.004094798
237	0x3c838ca0	0.016058266
238	0x3a9cda1c	0.0011966857
239	0x3c942daa	0.01808818
240	0x3b8e14ac	0.0043359604
241	0xbb704150	-0.0036660023
242	0x3cbe47e1	0.023227634
243	0x3bd81cd7	0.006595235
244	0x3c2f009e	0.0106812995
245	0x3baf2b85	0.005345764
246	0x3a4db6cb	0.00078473677
247	0x3c558086	0.013031131
248	0x3b87c4fa	0.0041433545
249	0x3b8c8d66	0.004289317
250	0x3cb30a4f	0.021855501
251	0x3cb05f47	0.021529807
252	0x3c32c59f	0.010911374
253	0x3c4738f7	0.012159578
254	0x3cddd401	0.02707863
255	0x3b6db70f	0.0036272442

classifier.0.bias f4 [10]
0	0x3e002ec9	0.12517847
1	0xbe461ce6	-0.19346961
2	0x3dde04db	0.1084077
3	0x3e697587	0.2279874
4	0xbdca163e	-0.098675236
5	0x3e04ec25	0.12980707
6	0x3d1d52e7	0.03840914
7	0xbe46f86e	-0.19430706
8	0x3e38d316	0.18049273
9	0x3e5fbe19	0.2184986

classifier.1.weight f4 [1, 10]
0	0xbc132d1f	-0.008982926
1	0xbe6a9ba2	-0.22910932
2	0x3c0a23e6	0.00843141
3	0x3e885268	0.2662537
4	0x3c1be9a6	0.009516155
5	0xbc1db0b3	-0.009624648
6	0xbc1dca09	-0.0096306885
7	0xbe9186fd	-0.284233
8	0x3d5e15b5	0.05421992
9	0x3e494536	0.19655308
